best_model.pth (torch, 36258 bytes, 10 tensors)

conv_block_1.0.weight f4 [10, 3, 3, 3]
00000000: 80cf febd d04b 55bd 664e 7f3e 339a 05be
00000010: 0701 b6bd db1b 0c3e 3db9 ec3d fd69 f6bd
00000020: f079 913b 5315 883b 48b2 0bbe 8ecc 13be
00000030: 0344 cf3c eaea b1bd f9b1 febd b296 f93c
00000040: 1008 46be b6f5 44be 4b98 2abe 02b6 eabc
00000050: d6d9 2abd 1a93 1e3e 88cc 24be 2835 843e
00000060: 1496 ad3d c2f5 9abc 66e5 d1bd 11ab 6e3e
00000070: ae2a b2bd c1d4 563e c7bc 793d ae65 163e
00000080: a9fb b0bd 4edc 333e c8cb e2bb ec6b 093e
00000090: b2f5 80bd f693 3cbd 6fa5 00be b5fb ee3b
000000a0: f6b5 3fbd bbd9 f43d 2402 16be 2b0e 28be
000000b0: 79c1 2b3d 1f08 913d 4201 843c f774 473e
000000c0: 79a4 c5bd 574a 663d b412 1ebe b010 b4bd
000000d0: 92ac 61bd fdd0 09be 7827 f63d 8251 47be
000000e0: 8f1e 0bbe ddeb ffbc 09b2 c43d 13f8 63bd
000000f0: 0d2f 9bbb 070c f9bd 61fd bdbd d815 2abd
00000100: fffc 73bd 1af2 f2bd 451d d03d e8bd e33d
00000110: 75ab 25bc 3f12 1ebd 4dd2 9cbd eb0a 1dbe
00000120: 0362 133e f050 4fbd 1dd9 c1bd a9b7 883d
00000130: b504 2e3e d1d6 3e3e 10fa d7bd b68f 163d
00000140: 5618 b83d ff77 49be 9449 ca3b 6bec 263e
00000150: 24de 753d a86f afbd 26d7 d83d 4d23 153e
00000160: f1d0 f7bd 5efe 063e f6b4 9fbd 5832 463e
00000170: 9a25 3d3e 7efb 73be f7f8 2e3d ed93 a43d
00000180: 1314 49be 5570 c2bd e0fd 89bd 516d 083e
00000190: 7484 273d 0ee9 f8bc 746a d5bd fcbe 283e
000001a0: c49e ed3d e5d2 493c 4214 09be 6b74 203e
000001b0: 6085 b9bd 6ea4 83bd c86d 19ba 2a65 35be
000001c0: b1af edbd 38a3 293d 6f90 eb3d 8c85 843c
000001d0: 3663 59bd 46ed 9b3c 5e9c f2bc 1405 75bb
000001e0: d69c 133d 0f1b 293e 0c84 a2bd 7567 8ebb
000001f0: d134 a3bd 4c95 583d c507 a53c 435e b73c
00000200: 4757 01be d293 a9bb 0070 a93d 656f ea3d
00000210: d028 23be 709f c2bd 2828 e03d 4e0a 013e
00000220: 687d b4ba 9d34 073e a9fb 5bbd bfaa 8dbc
00000230: 7332 f83b 2ea8 3f3e cd80 113d 4726 4f3e
00000240: 287b ccbd 31f1 8a3d 9c0f d4bc c082 1a3d
00000250: 7f76 5fbd c1f0 19be e8a9 6ebd 916a 873d
00000260: cab4 a83c bda8 1d3e 2bc2 e93d 85a7 393d
00000270: a413 14be 811a 4b3e 28a6 423d caa6 b73d
00000280: b9c4 22be 854c bdbc 20df 803d a878 c33d
00000290: 82fb 183e daf8 123d 0efb 0dbd 07c8 e4bd
000002a0: 822c da3d 5328 b5bd 44e3 cebd eda2 623d
000002b0: dd99 443e 21cf 403e 6df7 503d a59b 5e3d
000002c0: 2a37 243e 4582 093e ffd5 2d3e d817 f33d
000002d0: 3ddf 5f3d 49d1 653c f187 4bbe b579 143d
000002e0: 3d4c 913d cbc4 d3bd 5f53 4ebe 0d85 953d
000002f0: 262f 98bd 49dd 5a3d 8e45 153e 9ef1 083d
00000300: 0cc5 afbd dbf9 143d fb40 da3d de03 473c
00000310: e808 91bd a1eb 9cbd 26c6 05bd 23a7 9e3d
00000320: 8a6f cebb 96ad 01be 855c 8c3c 8e3d 2d3e
00000330: 6a70 243e 1572 143e 5d99 473e 582d 82bd
00000340: 90e0 90bd 993d 4dbe be22 03bd 8240 fcbd
00000350: 6ddf 32be 7462 513c 8db7 f7bc 39b0 acbd
00000360: de17 f2bd 17c8 d4bd 346b c3bd 1c86 a0bc
00000370: fb64 2fbe a7eb 0cbe 7b7b 323d 43b6 da3d
00000380: c01c 3cbe d3d0 713d ab75 cd3c 62ad 573e
00000390: 1437 bd3c 49e6 683d bbc8 ed3d 10da 503e
000003a0: 32d1 9fbd 06d8 133e 4dd2 4abd 854f 213e
000003b0: f435 163e c0b8 c1bd 264f 0cbe 72b9 51bd
000003c0: d480 b73c 1a90 183e f427 6c3c 25a6 0abe
000003d0: 0e52 b23c c376 89bd 3335 89bd 8645 f43d
000003e0: fb62 6fbd b211 2bbc c230 e33d 0672 603e
000003f0: 31c5 4bbe 7486 b5bd 4d62 333e 3313 093d
-0.12441921 -0.052074254 0.2493225 -0.13047104 -0.08886915 0.13682501 0.11558769 -0.120319344
0.004439585 0.0041529327 -0.13642228 -0.144335 0.025300985 -0.086873844 -0.12436289 0.030467365
-0.19339013 -0.19234356 -0.16659658 -0.028651241 -0.04171165 0.15485802 -0.16093647 0.25821805
0.08475891 -0.018916015 -0.102488324 0.23307444 -0.08699547 0.20979597 0.060971048 0.14687225
-0.0864175 0.17564508 -0.0069212653 0.13420075 -0.06296863 -0.046039544 -0.12563108 0.0072931894
-0.04680439 0.11955591 -0.14649254 -0.16411655 0.041932557 0.07081627 0.016113881 0.19478212
-0.09650511 0.05622324 -0.15436822 -0.087922454 -0.055096216 -0.13458629 0.12019247 -0.19464687
-0.13585876 -0.031240398 0.0960427 -0.055656504 -0.0047358335 -0.12160497 -0.09276844 -0.041524738
-0.059567448 -0.118625835 0.10161833 0.11120206 -0.010111679 -0.03859162 -0.07657299 -0.15336196
0.14392857 -0.050614297 -0.09465239 0.066756554 0.16993983 0.18636633 -0.105457425 0.036758147
0.08989017 -0.19674681 0.006173322 0.16301124 0.060026303 -0.085662186 0.10587911 0.14564247
-0.12100399 0.13182971 -0.077981874 0.19355142 0.18471375 -0.23826405 0.0427179 0.08036027
-0.19636564 -0.09494082 -0.06737876 0.13322951 0.0408978 -0.030384567 -0.10420695 0.16479105
0.11602548 0.012318348 -0.13386634 0.1566941 -0.090586424 -0.06427847 -0.00058528455 -0.17714372
-0.11605776 0.041415423 0.11502158 0.016176961 -0.05307313 0.01903404 -0.029615577 -0.003738706
0.036038242 0.16514228 -0.07935342 -0.004345829 -0.07969058 0.052876756 0.020145306 0.022383815
-0.1263095 -0.0051750923 0.082733154 0.11447028 -0.15933537 -0.095030665 0.10945159 0.12601587
-0.0013770284 0.13203664 -0.0537068 -0.017293332 0.0075743734 0.18716499 0.035523225 0.20229445
-0.09984428 0.06784285 -0.02588635 0.03772235 -0.054556366 -0.15033247 -0.058267504 0.06612123
0.02059402 0.153964 0.11413988 0.045325775 -0.14460617 0.19834329 0.04752174 0.08967359
-0.15895356 -0.023107776 0.06292558 0.09544498 0.14939693 0.035881855 -0.034663253 -0.11170965
0.106530204 -0.08845582 -0.10101941 0.05533116 0.19199319 0.18829013 0.051017214 0.054347653
0.16036668 0.134286 0.16976164 0.11869782 0.054656256 0.014026948 -0.19876076 0.03624888
0.070946194 -0.1034027 -0.20148991 0.07300768 -0.07430868 0.05343369 0.14577314 0.03343355
-0.085825056 0.036371093 0.10656925 0.012146918 -0.07081777 -0.0766213 -0.032659672 0.077467225
-0.0062999176 -0.12663874 0.01713396 0.16918012 0.16058508 0.14496644 0.19492097 -0.06356305
-0.07074082 -0.20043029 -0.032015555 -0.123169914 -0.17468043 0.012779821 -0.030238891 -0.08432049
-0.118209586 -0.103897266 -0.09541932 -0.019595198 -0.17128365 -0.13761769 0.04357479 0.10679295
-0.18370342 0.05903704 0.025080523 0.21062234 0.023097552 0.056860242 0.11610552 0.20395684
-0.07803573 0.14437875 -0.049516965 0.1575299 0.14669019 -0.094590664 -0.13702068 -0.051202245
0.022400297 0.1489872 0.014413822 -0.13539942 0.021767642 -0.06712105 -0.066996 0.11927323
-0.058444005 -0.010441231 0.11093284 0.21918496 -0.19899441 -0.088635355 0.17517968 0.033465575

conv_block_1.0.bias f4 [10]
00000000: 0895 183e f636 cfbd 4257 a4bc 5ae7 c2bd
00000010: 0eac 1e3e 69fe ddba 3b8c 223d f9f4 af3c
00000020: 9045 10be f24d 34bd
0.14900601 -0.10117905 -0.020061139 -0.09516783 0.15495321 -0.0016936782 0.039684515 0.021479117
-0.14089036 -0.044019647

conv_block_1.2.weight f4 [10, 10, 3, 3]
00000000: 200a a5bc 6585 03be 0a36 23bd eb90 b83a
00000010: b539 483d ab4d 61bd abf5 9e3d 7e6d 84bc
00000020: 2e42 bdbd bacf f2bd e702 c7bd a2c1 37be
00000030: 91db 5ebe 219f 61be 3f13 c1bc 36d4 bebd
00000040: 2ddb 3dbe 65bc adbd 09ab d9bd 8e2d 15bd
00000050: 91d8 08be 05d7 73bd aa32 363c a37b bcbb
00000060: fc62 26bd 94a7 dbbd c819 c0bc 8c90 37bd
00000070: a79b 1dbb 952a 5bbd 9a3a 0a3c 7b0d a4bd
00000080: 9e94 7f3b 20c6 dabc f7c9 1bbe ad8c 0f3d
00000090: 2c87 c43b c1b3 a1bd c799 c0bd b647 0dbe
000000a0: 7613 2dbe 131a d3bd d093 3dbe 8e64 4bbe
000000b0: 2e02 15bc ee6d c3bc 6014 053e 7298 79bd
000000c0: 377a cd3d 36ec c1bc 0f13 84bd 05c3 9b3d
000000d0: 7ec2 583d 55ea c23d df34 7e3d 553e b5bc
000000e0: aea1 8a3c da3c b83d c286 aabd 5b80 31bd
000000f0: 1214 a13d 7d52 af3d 54a2 2e3d b25c 05be
00000100: b285 f93c ecb8 7b3d 6f6b 01be ee53 223d
00000110: 97dc 0abe ece3 543c 03e0 a6bc 541b f7bd
00000120: d13f cebd 4109 29bd 061f a6bd 3a98 94bd
00000130: 2367 2abd 2908 283d e13b 08be b99c 50bd
00000140: 42a7 f4bd 3667 89bd fd4b d6bc 7521 af3c
00000150: defe 933c 92e1 2abe e393 35be 63fd 4fbd
00000160: 24c9 20be 2b73 19be a6fa 463d 68a2 3b3d
00000170: 2f15 d33d b5b5 60bd 7538 933d b966 c2bb
00000180: e23f cdbd 391d 3d3d 75b8 ca3c 244d 073e
00000190: 21ff 153d 7cae 623d ac05 3cbc bbee 80bd
000001a0: f670 a2bd e728 a8bc 36fb c23c c045 b53d
000001b0: 230f c33d 4e97 bbbd 22a6 82bd 8524 c93d
000001c0: 34bb abbd 922e a5bd 1367 27bd 53e4 3abd
000001d0: ce6a 473c a139 9cbd 473b 2abe 674d 20bd
000001e0: 2dda 93bc c037 b0bd e4a7 13be bea2 c2bc
000001f0: 1776 b0bd db1c f3bb 3a81 92bc 1a74 de3c
00000200: c731 fc3c 52b2 27bd d147 c5bc 9cfd 6a3d
00000210: 37f1 96bd fc69 f2bb 8710 52bc bb15 d1bd
00000220: 025d c8bd 8a1c c23c 3155 30bc ae86 623d
00000230: a8e3 3b3d 072d 47bd 699b 28bd aca1 bfbd
00000240: 7500 c33d 27cb 143d 4daa 15bd 8a5c d33b
00000250: a12c 81bb 72f7 bd3d 3920 2e3d 52a5 cb3d
00000260: 1bd5 b53d 7a8f 043e a60b 06bd e221 a33c
00000270: 4b86 fa3c cb4e b93d 0171 f03d 4e89 73bd
00000280: 9f02 963d d982 973d e747 8b3c f225 9d3d
00000290: 0e37 463e d8f9 c43d 35ba 0a3e 53dd 783d
000002a0: d0e6 083e e695 423e 66a3 da3d 8231 5cbd
000002b0: 78e2 383c 373c 923d 4de4 acbd a6e3 14be
000002c0: 3dd3 34bd 176c 35bd 13a5 263c 6087 a2bc
000002d0: 7f51 11bd e5ef 973d 97f9 eb3c 0475 253d
000002e0: bf4a ebbd 0677 1b3d 44ff 483d 8c88 c6bc
000002f0: 33ef ae3c 76e8 083e df56 0a3e 20f7 293e
00000300: b611 5f3e 82e7 ac3d 398d 663e 5aa8 443e
00000310: d2b4 943d 5050 ef3d d6ba 073e 33e9 b03d
00000320: 30cb d1bc 4511 593d 2d7b 29bb 0d91 733d
00000330: 9dea e93d 194a 6d3d c1ed 71bc ea24 ccbd
00000340: 385a 38bd 2578 13bd 4e7b 00be 86ef 373c
00000350: 13f7 6b3d c0a4 8cbd 881d 39bd b66b 8dbd
00000360: 8e68 123e fcbd c73d 4168 c7bc ee95 153e
00000370: 14d1 e53d bc49 49bb 7aa1 40bd 4aab dcbc
00000380: fcc8 c33d 7987 7dbd 8579 86bd 7ab4 e6bc
00000390: 32de f63c 28f2 69bd 26e5 fdbb 5994 d5bd
000003a0: 575a 463d 67d5 6dbc c0dc fcbc 3df5 c03d
000003b0: 2669 933d e1ca 62bd 01d3 16bc c8df a5bd
000003c0: 64a1 4e3d 0c6a 87bd 7160 5d3d 0cba f63d
000003d0: 9706 de3b be8a c83d a949 353d 589d aa3d
000003e0: 2b78 ff3c e4a7 063e ad1c bf3c 36dc 90bb
000003f0: 5ce2 b93d 52e2 b0bc a68d df3d b98e 2cbd
-0.02014643 -0.12843855 -0.039846458 0.0014081275 0.04888316 -0.05500571 0.07761701 -0.016165491
-0.092411384 -0.11856027 -0.097173505 -0.17944959 -0.21763445 -0.22033359 -0.023568748 -0.0931782
-0.1854064 -0.08483199 -0.106283255 -0.036420397 -0.13363864 -0.05953123 0.011120478 -0.0057520433
-0.040621743 -0.10725322 -0.023449793 -0.044815585 -0.0024049075 -0.053507406 0.008436823 -0.08010384
0.0038998495 -0.026705801 -0.15213762 0.03504627 0.005997559 -0.078956135 -0.09404331 -0.13796887
-0.16901955 -0.10307708 -0.18513417 -0.19862577 -0.009094758 -0.02385613 0.12996054 -0.0609364
0.10033076 -0.023672204 -0.06448948 0.076055564 0.052919857 0.095173515 0.06206214 -0.022124449
0.016922798 0.089959815 -0.08326484 -0.0433353 0.07865156 0.08560655 0.042635277 -0.13023642
0.030459259 0.061455652 -0.12638639 0.039630823 -0.13560711 0.012993794 -0.020370489 -0.12065759
-0.10070766 -0.04126859 -0.08111386 -0.072555974 -0.041602265 0.041023407 -0.13304092 -0.050930712
-0.119459644 -0.06709139 -0.02615928 0.021378258 0.018065866 -0.16687611 -0.17732196 -0.050778758
-0.15701729 -0.1498534 0.04857888 0.04580918 0.10306775 -0.05486079 0.07188503 -0.0059326557
-0.1002195 0.046170447 0.02474616 0.1321302 0.036620263 0.055342183 -0.011475962 -0.06295534
-0.07931702 -0.020527316 0.023801427 0.088511944 0.095243715 -0.091597185 -0.063793436 0.09821419
-0.083853155 -0.08065523 -0.040869784 -0.045627903 0.01217146 -0.07628179 -0.16624175 -0.039136317
-0.01804837 -0.086043835 -0.14419514 -0.023759242 -0.08616274 -0.0074192113 -0.017883886 0.02715497
0.030785454 -0.040941544 -0.024082096 0.057370767 -0.07370227 -0.007397888 -0.012821323 -0.10209223
-0.09783365 0.02369525 -0.010762499 0.05530422 0.045871407 -0.048626926 -0.041163836 -0.09357008
0.095215715 0.036326554 -0.036539365 0.0064502405 -0.0039420878 0.09275712 0.0425112 0.09943642
0.08878537 0.12945357 -0.032725953 0.019913618 0.030581614 0.09048232 0.11740304 -0.059457116
0.07324719 0.07398004 0.01700206 0.07673253 0.19356939 0.096179664 0.13547595 0.060757946
0.13369298 0.19002494 0.10675697 -0.05375815 0.011284463 0.07140391 -0.084419824 -0.14539966
-0.044146765 -0.044292536 0.010171193 -0.019839942 -0.03547811 0.07418803 0.028805537 0.040394798
-0.11488866 0.037955306 0.049071565 -0.024235032 0.021354293 0.13369927 0.13509701 0.16598177
0.217841 0.08442594 0.2251481 0.19204846 0.07261051 0.1168524 0.13254866 0.08638229
-0.025609583 0.052994985 -0.0025860772 0.059464503 0.11421702 0.057931993 -0.014766158 -0.09967978
-0.045007914 -0.03600325 -0.12547037 0.01122654 0.057608675 -0.06867361 -0.04519418 -0.0690531
0.14297697 0.097530335 -0.024341704 0.14607975 0.11221519 -0.0030714115 -0.047028996 -0.026937146
0.09559819 -0.061896775 -0.06566147 -0.02816223 0.030135248 -0.057115704 -0.007748264 -0.10428686
0.048426 -0.014516211 -0.03086698 0.094217755 0.0719779 -0.05536926 -0.009205581 -0.080993235
0.050446883 -0.06612024 0.05404705 0.120472044 0.006775688 0.09792088 0.0442597 0.08330792
0.03118523 0.13149983 0.023329103 -0.0044207824 0.09076378 -0.021592293 0.10915689 -0.0421283

conv_block_1.2.bias f4 [10]
00000000: 9bb2 7bbd 6632 b2bd 347d 263d 6e63 27bd
00000010: 752a b03d 4a9d a23d b0bf b13d 596c dd3d
00000020: c54b d7bd 3e26 823d
-0.06144963 -0.08701019 0.040646747 -0.040866308 0.08601848 0.07940157 0.086791396 0.10811681
-0.10512499 0.0635495

conv_block_2.0.weight f4 [10, 10, 3, 3]
00000000: bfc9 9a3d 23e5 60bb 6ac9 1bbd 2b6a 383d
00000010: f50f 5b3d 7cb9 fd3d 8e1f 233e 25c8 ab3d
00000020: eb6e a63d e4f8 f33d ba87 0dbd c2ba a5bd
00000030: 461b 5abc 3eb5 d43d 007b 54bd f92d cb3d
00000040: 14da ac3d 2209 f03d 8bf9 84bd 5cf5 edbc
00000050: 0df8 a0bc 24e7 18be 1825 16be 0bc0 5cbd
00000060: 56d3 96bd 9ff1 8abb 7613 a8bd f6d1 2b3d
00000070: 2b78 79bd 9c1c 48bc ee0b c33b 236f d33d
00000080: b860 c6ba 80b0 e23d 27b5 95bd a8de 983d
00000090: b9cb b7bd a713 b83b a773 823c 0bb4 0dbe
000000a0: 08e7 83bd 5da6 1bbd a08b 20be cbb1 073b
000000b0: 0d2b c23d 2f86 dd3d faf4 073e 2eec ef3c
000000c0: 12b4 f73d c59c 463d 42f4 8ebc d8c8 8c3d
000000d0: 7837 893d a729 883d 5fa7 9cbc 05b0 35bd
000000e0: b91f 11bd 4fc5 bb3c e15e 043e 17a1 1ebc
000000f0: e3d2 ed3d e94a 793c 488a 0b3e b1e0 923d
00000100: 77c8 85bd d5f0 5cbd 608f bdbd e045 a63d
00000110: 49c4 233b 41ce a6bd 70bd 2c3d dc20 b0bd
00000120: e107 6fbd 41e6 733d 957a 41bd cbd3 a13d
00000130: a862 8fbd 8ef6 2a3d 6f22 403c 3d42 5dbd
00000140: ccb9 b93d a4f3 ed3d 7a9b 77bc 7ef6 973c
00000150: 451a c63d b7c6 80bd 0b9e 26bc 5fd1 e63d
00000160: 2347 6fbd 8ec6 bf3c 78d8 61bd ee23 873d
00000170: 003f 3f3d 1c60 893c 9db9 70bd 958b 81bd
00000180: 8dc6 b43d c65d 09bd 03f9 733a 4750 d6bd
00000190: 0331 173c 4266 b0bd 3d2d f0bc 3fa5 36bd
000001a0: fb8f 963d df4c b33d 6c77 173c 2cd8 333d
000001b0: 45e6 3dbd bf61 983d 00d7 7b3d 79d3 86bd
000001c0: 2568 b5bd 0e9e 443d 3eec a9bd 6ddd 5ebd
000001d0: 63bd 4b3c 8fe0 cc3d ea2f 1e3c 40d8 103d
000001e0: f0a0 113d e11a 21bc cf61 a93b a874 62bd
000001f0: 45b9 96bd a921 dbbc aaf8 f7bd d1bc 2cbd
00000200: 43eb b43c d6a1 48bd 6594 a6bd 1164 3c3d
00000210: 4f7a d9bd 7b6d 133d cc79 b5bd c654 16bd
00000220: 7531 933b 7e7c 8f3d 3091 ac3d 9de6 883d
00000230: a555 2d3d d7ba a0bd 27bd eebc 6485 cfbc
00000240: a44b e7bd 0d6f 5b3d f805 6fbd b0b4 8d3b
00000250: ae50 79bd b797 d0bd 9acc 95bd c7df 11bd
00000260: b751 a13d 3e63 b9bc 3de6 17bd ef77 c4bd
00000270: 75b8 72bd 2b41 5dbd e4af 2bbd 7f6a 3e3d
00000280: 1881 25bd de18 bcbd 5ba5 1dbd ac51 8e3d
00000290: ee75 dd3c 56f9 b8bd 42d6 773c 813b fdbc
000002a0: 1c85 d33d 9d84 0d3c c044 aa3d 4cca 56bd
000002b0: 097b 943d a6f1 b93c e6c8 9dbd b972 803b
000002c0: 88a2 b83d c5c1 8cbd 21a7 d3bb 8e0c 673d
000002d0: 68e6 ba3d ff9e b43d a1d5 52bd 3846 cf3d
000002e0: 0cbd b73d 7bd5 ec3d 89e3 f8bb c8d9 d63d
000002f0: 32cc a2bd c639 b2ba 1fbc 6ebd f3d8 833c
00000300: 20dd 2cbb 008c edbc 33f9 ca3c 6da5 0d3d
00000310: ed52 b93c e111 da3d b426 00bd a1de f7bc
00000320: 0d7a 613d 77a2 523d acf2 a1bc b910 b3bd
00000330: 9730 943d 7775 de3c 2c44 0dbd 60dd 193d
00000340: 20ff 53bd 26d2 163d 3eee 773d 11ec 12bc
00000350: 7c72 99bc 60e8 4ebc fd2e 93bd d9d5 0ebd
00000360: 6ce2 73bd b8b0 09bd 15fb e93d 5fb3 f6bd
00000370: 87c3 e13d 48aa 57bd 5f94 673c e55d 423d
00000380: 26e8 8cbc dab0 11bd 3125 c43d 2a54 2fbc
00000390: 1d4a b6bd 078c 843c 28b0 37bc f5d5 ae3d
000003a0: 0acd a83d 896c c2bd 6290 c5bd d4a8 5a3d
000003b0: 2c7c bdbd 88b6 37bd db85 b6bc a826 a6bd
000003c0: b3e7 46bd c21d 2e3d 5168 053d 2f72 e6bc
000003d0: 9047 b73b 74e0 d7bc 7940 9abd 8608 3f3d
000003e0: a77a d13d 4a77 a7bd fea6 3e3d 1d79 953d
000003f0: e3dd 87bd 4bca 743d 0550 a5bc 392e 4b3d
0.07558011 -0.0034316264 -0.03803388 0.045023125 0.053482015 0.12388894 0.15930006 0.08387784
0.08126625 0.119127065 -0.034553267 -0.08092262 -0.013312167 0.10386132 -0.051875114 0.09920878
0.084400326 0.11720492 -0.06492909 -0.02904766 -0.01964953 -0.14931923 -0.14662588 -0.053894084
-0.07364528 -0.0042402293 -0.08206837 0.04194828 -0.060905617 -0.012213852 0.00595235 0.10323932
-0.0015135026 0.11068821 -0.07309943 0.07464343 -0.08974404 0.005617577 0.015924288 -0.13838212
-0.0644055 -0.038000453 -0.15678263 0.0020705338 0.094808675 0.10816609 0.13277045 0.029287424
0.120948926 0.04848935 -0.017450456 0.068742454 0.06700033 0.066485696 -0.019122778 -0.04435732
-0.035430644 0.022921233 0.12926818 -0.0096819615 0.11612489 0.015215614 0.13626969 0.07171763
-0.06532376 -0.053940613 -0.09255862 0.08118796 0.0024988821 -0.081448086 0.04217285 -0.086000174
-0.058357123 0.05954576 -0.047236044 0.079017244 -0.07001239 0.04173904 0.01172696 -0.054018248
0.09068641 0.116187364 -0.015112752 0.018550154 0.09672979 -0.06287902 -0.010169516 0.11270403
-0.05841745 0.023410108 -0.05513808 0.0659865 0.04669094 0.016769461 -0.058770765 -0.06325451
0.08826933 -0.033536695 0.000930682 -0.104645304 0.009227994 -0.08613254 -0.029318446 -0.044591185
0.07351681 0.087548964 0.009244781 0.04390733 -0.04636218 0.074405186 0.061484337 -0.06583304
-0.088577546 0.048002295 -0.08297013 -0.054410387 0.01243529 0.10003769 0.009654978 0.035362482
0.035553873 -0.009833069 0.0051691304 -0.055287033 -0.07359556 -0.026749449 -0.12107976 -0.042172257
0.022084838 -0.048982464 -0.08133773 0.04599387 -0.10619032 0.03599308 -0.088611215 -0.03670194
0.0044919797 0.07006167 0.0842613 0.06684611 0.042318005 -0.07848137 -0.02914293 -0.02533216
-0.11293724 0.053572703 -0.0583553 0.004324518 -0.060867958 -0.10185187 -0.07314415 -0.0356138
0.07876914 -0.02263033 -0.037084807 -0.09593188 -0.059257943 -0.054017227 -0.04191579 0.04648828
-0.040406317 -0.091844305 -0.038487773 0.069491714 0.027033772 -0.09031932 0.015126767 -0.030912163
0.10328123 0.0086375745 0.08313894 -0.05243902 0.072500296 0.022698235 -0.07704334 0.003919926
0.090153754 -0.06872896 -0.0064591323 0.056408457 0.09125978 0.088193886 -0.051473264 0.10120815
0.08971605 0.11564156 -0.0075954837 0.10490757 -0.079491034 -0.001359754 -0.058284875 0.01609466
-0.0026376918 -0.028997421 0.02477703 0.03458159 0.02262255 0.106479414 -0.03128691 -0.030257525
0.055048037 0.05142447 -0.019769035 -0.08743424 0.0723583 0.027155621 -0.034488842 0.037564635
-0.051756978 0.036821507 0.06052994 -0.008967415 -0.018731348 -0.012628645 -0.07186697 -0.03487191
-0.059542105 -0.033615798 0.11424843 -0.12045931 0.11023622 -0.052652627 0.0141344955 0.047452826
-0.01720054 -0.03556905 0.09577406 -0.010701219 -0.08900855 0.016180051 -0.0112114325 0.08536903
0.08242233 -0.09493358 -0.096466795 0.053383663 -0.092521995 -0.04485181 -0.022280624 -0.08112842
-0.04856081 0.042508848 0.032570187 -0.028130619 0.0055932477 -0.026352145 -0.075318284 0.046638988
0.10228472 -0.081770495 0.046545975 0.07298491 -0.066341184 0.059763234 -0.020179758 0.04960463

conv_block_2.0.bias f4 [10]
00000000: 46bd d2bd fa4f 7bba 4661 653d 3bc3 08bb
00000010: 7880 82bd dbed 3a3c 64ba cdba 33de a3bd
00000020: 0d24 6c3d 7783 d33d
-0.10290007 -0.00095868076 0.05600097 -0.002086832 -0.0637216 0.011409248 -0.0015695808 -0.080013655
0.05765157 0.10327809

conv_block_2.2.weight f4 [10, 10, 3, 3]
00000000: 8ac0 bfbc 1e82 b1bd 5625 9f3d bead 493d
00000010: 72d1 16bd b61a ac3d b88f adbd 51a7 95bd
00000020: d079 903d 7913 9b3d 4b16 26bd ec2c 47bc
00000030: b678 573d 7a5a 393d 51bd 133d c96f 8c3d
00000040: c793 2a3d 3eab 133c aecd 993d d50c d5bc
00000050: 7aa3 ea3b 0805 373d 75a9 b03d acea 693d
00000060: ef13 24bd 0fba f93c e064 8e3d c309 d83c
00000070: 19e4 52bd c0d5 cfbd 30f5 ea3c 5f3c 25bd
00000080: cd3a 80bc 20c5 b139 83cb c0bd 16dc 0dbd
00000090: 4882 6a3d f471 af3d ad81 f0bc 394a 053e
000000a0: 9f08 f83d 9ebc 373d aac3 893d f947 febc
000000b0: b6a6 073c b1de d53d 9a12 79bd ff6f 8e3d
000000c0: c571 ea3c 46fe fbba c904 b3bb d02e 9e3c
000000d0: 572b 8dbc 9dce cfbd c92e 8cbc c0a5 cc3c
000000e0: 5954 b93d c95d 8e3d 8256 153e 3772 633d
000000f0: f895 1bbc 8ad0 843d 88e0 893c 61e8 743d
00000100: 1e92 113e dc48 0e3e 02c6 173e 9251 bebb
00000110: c82d cf3c 6abc e83d 5550 da3c 6095 0f3d
00000120: 1588 96bd bb29 893d 37ed 4b3d 5859 653d
00000130: 9cda 07bd a4c5 efbd 197b 7c3d 8118 83bd
00000140: e515 9d3d 5a33 5ebd c489 5d3c defa c8bd
00000150: 67fb 24be 181b c3bd 3e87 383d e79b 043c
00000160: 0f2c f9bd 1f8b 01bd f080 17be 9efa 023c
00000170: f08a 7abd a8b0 bdbd 73e5 00be ca96 d13c
00000180: 8d1d 05be 5c3e 503d ae4e 3dbd af67 f93c
00000190: 4abf e5bc e6fc cc3d d577 a5bd 5373 443d
000001a0: e093 5dbd c52e 213d e1bd 533d 86ac 6f3c
000001b0: 330f dd3d 893c bbbb c232 dc3d 3454 b23d
000001c0: e778 cb3d 3b9d fe3d 6f7a adbd c8a2 5fbd
000001d0: 9756 7a3d eea2 8abd fee3 eebb 9707 0b3c
000001e0: cce8 9ebc 4982 6bbd b33d b03d 14c3 cf3d
000001f0: 00fc 253d b5df 223d 3e25 75bd c24c 8f3c
00000200: 3265 e23d c5cd 6d3d 93a8 943d 4059 fdbc
00000210: 0439 d03d 0df7 c43c aec2 dabb 2067 c2bd
00000220: beb9 a4bd e447 acbd 1928 c9bd 453a b2bd
00000230: dde2 8a3d 476d 23bd 6f95 1bbd 0038 88bd
00000240: a1fb a43b 3a89 5ebd a21f f93c 7306 85bb
00000250: 06c1 bbbc 0b37 c8bd f1d5 81bd 0d2e 873d
00000260: 9922 0cbd 8a99 a9bd 2c0d ac3d b2b6 fd3d
00000270: 5932 b63d f38f 903d 1c47 4f3d 0a50 d7bd
00000280: d82c 2fbd e337 3dbd 2c18 c03d af10 32bd
00000290: 70e3 b2bd a89e 66bc 049b bf3c a0cc 8ebd
000002a0: 2c5d 49bd a206 2c3c 28c2 7fbd 230c 633d
000002b0: 723b 6cbc dcf1 52bc f28b e9bd ece3 fbbd
000002c0: 0edc f1bd 5a36 b3bd 2591 323b 7391 cebd
000002d0: d854 69bd 9167 993d 60b4 bfbd c4d4 55bd
000002e0: ada7 c93d ba0d 9bbd d336 8abd e488 ebbc
000002f0: f209 8dbd 97bc 923d 4f0b 68bd 2bc1 95bd
00000300: 32f6 3e3d 52af 273d e198 a43d 304b c5bd
00000310: 905b b43b 3c36 c1bd 9666 ac3b 2466 223d
00000320: 77f0 9bbd d72f b1bd ecf0 833d a8dd a6bd
00000330: d9bc c2bd bd31 4ebd c416 3ebd 38d3 acbd
00000340: c36a 57bd eb8a 073d c44c c13c d048 a03c
00000350: 97ef fd3c 0e2e 11bd 5379 853d a176 e13c
00000360: 06d1 01bd ef7d d3bc e7e7 eebc 277d 9b3d
00000370: c3be dabd 4f05 a33d 76de 103d f821 92bd
00000380: d442 ae3d a07a 59bc ac05 3ebd ec34 d3bc
00000390: 601a 28bc d009 06bd 20a6 183b 3009 c2bb
000003a0: dc56 8bbd fef3 8cbd 1d05 b83d 303e fabc
000003b0: 37a4 5cbc 18da 853c 7533 69bd d4e2 39bd
000003c0: c04e 793b c9e8 c53d 92fd c63c 22d7 2abd
000003d0: 1890 533c 52dc a83c 403d 6abb b1c8 9fbd
000003e0: 178b 863d 32f3 bcbd 759f b8bd 84c1 ddbd
000003f0: 5969 0ebd e630 363d 3d93 cabd 61fc 6cbc
-0.02340724 -0.08667396 0.07770793 0.04923796 -0.036820836 0.08403532 -0.08474678 -0.07307304
0.07054484 0.075720735 -0.040548604 -0.012156706 0.052605353 0.0452523 0.036069218 0.06857259
0.041644838 0.009012995 0.075099334 -0.026007095 0.007160601 0.044682533 0.08626071 0.057108566
-0.040058073 0.030484227 0.06952834 0.026371842 -0.051487062 -0.101481915 0.028681368 -0.040340777
-0.015653038 0.0003390694 -0.09413817 -0.03463372 0.057253152 0.08566657 -0.02935871 0.13016595
0.12111019 0.044857614 0.06726773 -0.031040179 0.008279493 0.10442866 -0.060808755 0.06954955
0.028618703 -0.001922556 -0.005463217 0.019309431 -0.01723258 -0.1014683 -0.017112153 0.02498138
0.09049291 0.06951482 0.14583781 0.055528846 -0.009496205 0.06485088 0.016830698 0.059791926
0.14215896 0.13894981 0.14821628 -0.005808064 0.025290385 0.11364062 0.026649633 0.035054564
-0.07350174 0.066974126 0.049786773 0.055993408 -0.033167467 -0.11707619 0.061640833 -0.06401158
0.07670192 -0.05424819 0.013521615 -0.09813474 -0.16111527 -0.09526652 0.045050852 0.008093811
-0.12166607 -0.031626817 -0.1479528 0.007994322 -0.061167657 -0.0926221 -0.12587528 0.025584597
-0.12999554 0.05084072 -0.046217613 0.030444948 -0.028045315 0.10009174 -0.08079497 0.047961544
-0.054096103 0.039351244 0.051694755 0.014628535 0.10793915 -0.0057140035 0.10751869 0.08707467
0.0993517 0.12432333 -0.08470618 -0.0545986 0.061117735 -0.067693576 -0.0072903624 0.008485696
-0.019398116 -0.057497296 0.08605518 0.1014463 0.04052353 0.039764125 -0.05984997 0.017492656
0.11054458 0.058057565 0.072587155 -0.030926347 0.10167125 0.024043584 -0.0066760397 -0.09492326
-0.0804324 -0.084121495 -0.09822101 -0.0870252 0.06781552 -0.039899137 -0.037984308 -0.06651306
0.0050348793 -0.05433009 0.030410592 -0.0040596067 -0.02291919 -0.097761236 -0.06339634 0.0660058
-0.034212682 -0.082812384 0.0840095 0.12388362 0.08896322 0.07058706 0.050604925 -0.10513313
-0.042767376 -0.046195876 0.093796104 -0.043472942 -0.087347865 -0.014075913 0.023389347 -0.06972623
-0.04916112 0.010499628 -0.06244102 0.055431496 -0.01441847 -0.012875047 -0.114036456 -0.12299332
-0.1180955 -0.08750601 0.0027247157 -0.10086336 -0.05696568 0.07490457 -0.09360576 -0.052204862
0.09846435 -0.075709775 -0.06748738 -0.028751798 -0.068866625 0.07164877 -0.05665141 -0.073122345
0.04662151 0.040938683 0.08036972 -0.096334815 0.005504079 -0.094341725 0.0052612526 0.03964819
-0.076142244 -0.08651703 0.064424366 -0.08147746 -0.09508676 -0.050340403 -0.04640843 -0.08438724
-0.05259205 0.033091467 0.023596175 0.01956597 0.030998034 -0.03544431 0.065172814 0.027522387
-0.03169348 -0.025816886 -0.029163314 0.0759223 -0.10680916 0.07959997 0.035368405 -0.07135385
0.0850884 -0.013273865 -0.046392128 -0.025782071 -0.010260195 -0.0327242 0.0023292378 -0.0059215054
-0.068036765 -0.06882475 0.0898535 -0.030547231 -0.013466886 0.016339347 -0.05693384 -0.045382336
0.0038041323 0.09663541 0.024290834 -0.041709073 0.012912773 0.02061287 -0.0035742074 -0.07801951
0.06569498 -0.09226073 -0.09014789 -0.10827926 -0.034768436 0.044480227 -0.09891365 -0.014464469

conv_block_2.2.bias f4 [10]
00000000: d647 96bd 6f0e 853d f1e7 91bd 99e9 f4bb
00000010: c63a dbbd 51df debd 4e97 78bc 4492 063d
00000020: 63c3 9abd e86a aa3d
-0.0733792 0.064968936 -0.071243174 -0.007474136 -0.107045695 -0.10882438 -0.015172793 0.032854334
-0.07556798 0.08321172

classifier.1.weight f4 [3, 1690]
00000000: ba30 ccbc b04b a2bd c6e8 99bd 142b 3abd
00000010: 2ae2 4dbd 7811 b7bc 5c02 0dbd ea34 0bbd
00000020: 797d 4ebd 8348 f8bc 4c0e 87bd 4347 99bd
00000030: 2d9b 85bd 561c c7bc 2cb3 2dbc af21 d8bb
00000040: 18d4 223a da54 9cbb 23ee 6b3c 80c2 14bc
00000050: a9b2 8bbc f785 59ba 3abc 6cbb 0312 ddbc
00000060: 8fc7 1ebd 1067 35bd 2be2 40bd ca35 613b
00000070: c84e 623c 9adb 163d 6eff c63c 1858 353c
00000080: f964 0a3d b8e2 f6ba ae09 0e3d 844d f13c
00000090: db21 a8bc 751b a4bc a9be 02bd 73d4 84bd
000000a0: 2e5b d2bc baa0 3d3c 3669 153d 9d80 163d
000000b0: dd16 433d b6c3 293c 2908 bb3c d381 bab9
000000c0: a9b7 2d3c 918e 2f3b 3b9d 2dbc d894 15bd
000000d0: 59a9 a7bc c8d8 d83c 3339 78bb 7a54 a73c
000000e0: 0d59 8e3c aa14 013c 0d26 953c 3d93 de3c
000000f0: b041 e03c dc87 d53c 639a df3c c557 663b
00000100: f582 323c 4d82 a1bb bafd c4bc 153e 8a3a
00000110: 4fa9 2d3d a803 7a3c 786e 1f3d 99c5 6c3d
00000120: 7fb8 413d 3262 923d c6a0 943d dca0 bc3c
00000130: ebd2 0e3c 3f07 873b 9954 d4bc d58a 38ba
00000140: fddb 7c3c 800a 123c 1fd9 3c3d cc15 f83b
00000150: ecb7 3c3d 3abb e73c 81c2 293d 2c6f 533d
00000160: f027 ee3c dfd8 193b 5075 dcbb e34a 33bd
00000170: 4631 1639 eb3c f3ba 79c8 23bb e52c f5bb
00000180: 0aa7 04bc 7aa3 b83c 80be f63b 405e 233d
00000190: c127 a53c 15a8 aebc 03c4 49bb 4868 babc
000001a0: f484 61bd cd30 a3bc f380 d6bb b773 b4bb
000001b0: 8e3f cebc d2ae 9abc 9b0f a2bc 3d76 b0ba
000001c0: 5716 e63c 4a5b 5dbc 28c7 0ebb 22a5 a23b
000001d0: baf6 97bc 81af 8fbd 9291 31bd 6795 50bc
000001e0: 8981 f4bc 9c41 09bd 6f02 acbc d792 463b
000001f0: 2c53 be3c 10b8 523c ded7 49bb b519 083d
00000200: 1a09 b2bc 7fc9 c83a 8874 cfbc a721 46bd
00000210: 31fc ddbc cd3b 123c 2262 ffba 1e5b b8bc
00000220: 17c5 2bbc 013c 823b 6bee 143c 40a2 643c
00000230: 7a09 1ebc db30 81bb 9e7c 23bd 2e1e 83bd
00000240: c74d 24bd f3a3 a3bc 722c 623c 7e07 b93c
00000250: 3290 263a 4173 1ebd d042 083b dd43 5d3a
00000260: c13e 0fbd f09b e839 03a4 20bd 3d3b 6abd
00000270: f177 b8bd f50a 4cbd bbcf fdbc 5ae1 56bd
00000280: 7365 f0bc 5e09 0abd 5173 c2bc 64b8 87bb
00000290: a85a 2bbc 2f18 11bd 81d0 a9bc 5d42 afbc
000002a0: 1059 97bd a22a fa3b 1a1c 57bd 8897 91bd
000002b0: f51b 12bd 3c0b 69bd e13b c9bc 5f9e 8ebd
000002c0: 824b bfbd b2a9 24bd 1486 89bd 8ca5 6dbd
000002d0: 3568 24bd df28 35bd d2d5 1e3c d89c 03bd
000002e0: a126 373c d34b 453c 24a8 9e3b e69f d8bc
000002f0: 3416 9bbc 85b8 8dbb b246 babb a4c8 57bc
00000300: 019c da3b f58d 13bd a3a7 2bbd 1f96 203d
00000310: 2468 c13c 1feb d13b 870a b53c 0112 e23c
00000320: fcb6 8fb9 6b5e 823c 4420 bdbb a849 54ba
00000330: 53c4 0eba f008 26bb 7ade b7bc c841 06bd
00000340: 2ba0 61bb 90c3 c03c 063c 173d dba9 4c3d
00000350: b23e 453d 5cbc 55bc bf75 ecba 3e29 bb3b
00000360: 8900 d8bb b537 db3a e311 a43b 994f 66bc
00000370: 4d09 1ebd 975c 813c 7fb3 0e3d 8303 513d
00000380: 072b 0e3d ea3d 3f3d 7e50 8cbc 5248 c5bb
00000390: 84b9 20bd 1dd6 05bd 5db8 b93c bb65 9ebb
000003a0: 4a05 29bd 28a8 75bc fe60 f93c 3266 f13c
000003b0: d619 d83c f5f2 223c e7d9 b43b 2301 123d
000003c0: 2030 393b 2217 aa3c e2c6 353d 6df6 4e39
000003d0: 1869 e43c 1327 6cbb 6092 25bd addc 8b3c
000003e0: 20fa 8d3c d632 bf3c 859e 823b c048 6c3c
000003f0: 1ffa 94bc d196 4abc bc3d a13a 2861 553c
-0.024925578 -0.079245925 -0.07515101 -0.04545124 -0.050264515 -0.022347197 -0.03442608 -0.03398601
-0.05041263 -0.030308014 -0.06594524 -0.07484295 -0.06523738 -0.024305504 -0.0106018 -0.0065958123
0.0006211414 -0.0047708573 0.014400038 -0.009079576 -0.017052965 -0.00082978554 -0.0036122934 -0.026986128
-0.038764533 -0.04428774 -0.04709069 0.0034364336 0.013812728 0.036830522 0.02429172 0.0110683665
0.0337877 -0.0018835878 0.0346772 0.029455908 -0.020523956 -0.020032624 -0.03192011 -0.06485834
-0.025678243 0.011573965 0.03647729 0.03674375 0.047629226 0.0103616025 0.02283104 -0.0003557341
0.01060287 0.0026787857 -0.010596569 -0.0365189 -0.020466493 0.026470557 -0.003787589 0.020426024
0.017376447 0.007878462 0.01820662 0.027169818 0.027375072 0.02606576 0.027295297 0.003514753
0.01089548 -0.004928863 -0.024046768 0.0010547066 0.042397793 0.015259661 0.03892371 0.05780563
0.04729509 0.071476355 0.072572276 0.023025922 0.008717279 0.004120737 -0.025919246 -0.00070397306
0.015433309 0.008913636 0.0461055 0.0075709578 0.04607384 0.028287519 0.04144526 0.051619694
0.029071778 0.0023475213 -0.006727852 -0.04377259 0.0001432347 -0.0018557584 -0.0024991317 -0.0074821585
-0.008096466 0.02253889 0.0075300336 0.039884806 0.020160558 -0.021320382 -0.0030786998 -0.022754803
-0.055058435 -0.019920731 -0.0065461337 -0.0055069583 -0.02517679 -0.018882189 -0.019782832 -0.0013462972
0.028086824 -0.013510535 -0.0021786187 0.004963533 -0.018550266 -0.070158966 -0.043351717 -0.012730933
-0.029846923 -0.033509836 -0.020997254 0.0030299926 0.023233019 0.012861267 -0.0030798833 0.03322764
-0.021732856 0.001531884 -0.025324121 -0.048371937 -0.027097793 0.00892539 -0.0019484202 -0.022504386
-0.010484002 0.003974438 0.009090046 0.013954699 -0.009645814 -0.0039425916 -0.039913766 -0.06402241
-0.040113237 -0.019975638 0.013804542 0.02258658 0.0006353884 -0.038684133 0.0020791776 0.00084405934
-0.034971956 0.0004436667 -0.039218914 -0.0571854 -0.09007252 -0.049815137 -0.030982843 -0.052461006
-0.02934525 -0.03370034 -0.023736628 -0.004141854 -0.010458626 -0.035423454 -0.020729305 -0.02139395
-0.07390034 0.0076344768 -0.052517034 -0.071089804 -0.035671193 -0.05689548 -0.024564685 -0.06963801
-0.09340574 -0.040200897 -0.067150265 -0.058019206 -0.040138442 -0.04422843 0.009694533 -0.032132
0.011178643 0.012042004 0.0048418213 -0.026443433 -0.018931486 -0.004324975 -0.005684697 -0.013170395
0.006671429 -0.036024053 -0.041907918 0.039205667 0.023609228 0.0064062024 0.022099746 0.027596476
-0.0002741142 0.015914163 -0.0057716686 -0.0008098134 -0.00054461247 -0.0025334917 -0.022444952 -0.032777578
-0.0034427743 0.023530751 0.036922477 0.049966674 0.048155494 -0.013045397 -0.0018040462 0.0057117036
-0.0065918607 0.0016724976 0.005007015 -0.0140570635 -0.03858309 0.01579122 0.03483915 0.05102874
0.034709003 0.046689905 -0.017128225 -0.006020584 -0.03923942 -0.032674897 0.02267092 -0.0048339046
-0.04126481 -0.014993705 0.030441757 0.029467676 0.026379507 0.009945621 0.00551914 0.035645615
0.0028257445 0.020762984 0.044379123 0.00019737492 0.027882144 -0.0036034032 -0.040422797 0.017073
0.017331183 0.02333967 0.003986182 0.014421642 -0.018185673 -0.012365059 0.0012301723 0.013023652

classifier.1.bias f4 [3]
00000000: a08b fdba 01cf f9bc 2682 273d
-0.001934398 -0.030494215 0.040895604
